gym-example/trained_ppo/policy.pth (torch, 604926 bytes, 12 tensors)

log_std f4 [29]
0	0x3d1881a0	0.037232995
1	0x3d7c6ed3	0.061629128
2	0x3d55977b	0.052146416
3	0x3dbae3f3	0.09125509
4	0x3d6b63ac	0.0574681
5	0x3e12cfcf	0.14337085
6	0x3d88e7ed	0.06684861
7	0x3d83ecbc	0.06441638
8	0x3d9a1fb7	0.075255804
9	0x3da019a0	0.078173876
10	0x3db3a3fc	0.08771512
11	0x3d5baaa3	0.05362953
12	0x3d817eec	0.063230366
13	0x3dda6a42	0.10664798
14	0x3c92b521	0.017908635
15	0x3db3da59	0.08781881
16	0x3d3b6dea	0.04575912
17	0x3d91c841	0.071182735
18	0x3e094bfe	0.13407895
19	0x3dbfd827	0.093674
20	0x3dd3a074	0.103333384
21	0x3d168619	0.03674898
22	0x3d17d4e1	0.03706825
23	0x3ddceed3	0.107877396
24	0x3dfd5a9e	0.123707995
25	0x3daf977e	0.08573817
26	0x3da648f2	0.08119382
27	0x3d583a1f	0.052789804
28	0x3d0261c9	0.031831536

mlp_extractor.policy_net.0.weight f4 [64, 1092]
0	0xbd08e40d	-0.03342061
1	0x3e00535e	0.12531802
2	0x3bc21663	0.005923079
3	0xbcf2d5a2	-0.029642884
4	0x3dba6c91	0.09102739
5	0x3d9f4591	0.077769406
6	0x3c11d7a8	0.008901514
7	0xbd3d4f82	-0.046218403
8	0x3db7644b	0.08954676
9	0x3d48ffd6	0.04907211
10	0x3c85d872	0.01633856
11	0xbbc2775f	-0.0059346403
12	0xbc83c760	-0.01608628
13	0x3ce62005	0.02809144
14	0x3cc49a64	0.0239994
15	0x3cd4e480	0.025987864
16	0x3c80ce02	0.015723232
17	0xbc00dddc	-0.007865395
18	0x3b96c443	0.004601033
19	0x3b85b4c3	0.0040803864
20	0x3bb0c69a	0.005394769
21	0x3c22dcb7	0.009940318
22	0xbd643a31	-0.05571956
23	0x3aca299f	0.0015423781
24	0xbd696779	-0.056983445
25	0x3d0b029c	0.033938035
26	0xbdd7c45c	-0.105354995
27	0xbc9d1b29	-0.01917799
28	0x3d99b4b9	0.07505173
29	0x3cce600e	0.025192287
30	0xbd0facae	-0.03507679
31	0xbbc785d1	-0.00608895
32	0xbc044b12	-0.008074539
33	0xbc944b2f	-0.018102257
34	0x3c766ee3	0.015041086
35	0x3c233883	0.009962204
36	0xbd81301c	-0.06308004
37	0xbc7310ad	-0.014835519
38	0xbd4972eb	-0.04918186
39	0x3d999380	0.074988365
40	0xbc50e38a	-0.012749562
41	0x3d36f8f0	0.044671
42	0xbc19c44a	-0.009385178
43	0x3c5190c2	0.012790861
44	0x3dc1c2dd	0.09460995
45	0xbd5ae0ab	-0.053436916
46	0xbaf5dbb4	-0.0018757493
47	0x3d2a50f4	0.04158111
48	0x3cc3b3f3	0.023889517
49	0xbb0e18d0	-0.002168227
50	0x3d32b1f6	0.043626748
51	0x3d12f1d3	0.035875153
52	0xbd1a95f0	-0.037740648
53	0x3bee5145	0.0072728717
54	0x3c1b2110	0.009468332
55	0x3c7833d1	0.015149073
56	0x3d3d07e3	0.0461501
57	0xbd2a8faa	-0.041640915
58	0xbcbee3f4	-0.023302056
59	0xbd61b94c	-0.055108353
60	0xbc40e6cf	-0.011773779
61	0xbce6e653	-0.028185999
62	0x3d83ba56	0.06432025
63	0xbd9ab6c4	-0.07554391
64	0x3d76cf95	0.06025656
65	0xbc7b7205	-0.015347009
66	0x3bb00dcb	0.005372738
67	0xbc0e50ad	-0.008686227
68	0x3d6e6a86	0.058207057
69	0x3d366e73	0.044538926
70	0xbd803829	-0.06260712
71	0x3df6bdff	0.12047958
72	0x3da1cac8	0.079000056
73	0x3b915c31	0.004436039
74	0xbd2815ea	-0.041036524
75	0x3cd950f9	0.026527869
76	0x3ceaae27	0.028647495
77	0xbd40c8cc	-0.047066495
78	0x3c2b5736	0.010457804
79	0x3d29ba06	0.04143717
80	0x3d4455da	0.047933437
81	0x3d17ecf8	0.037091225
82	0x3d74030d	0.059573222
83	0xbab11d1a	-0.0013512701
84	0x3c54eb2c	0.0129955225
85	0x3dd9adad	0.10628829
86	0x3d22c4d6	0.0397385
87	0xbc04ec4c	-0.008112978
88	0xbc90cc2f	-0.017675487
89	0xbd12ec5b	-0.035869937
90	0x3d26fc30	0.04076785
91	0x3d2ab23d	0.041673888
92	0x3ca566ea	0.020190675
93	0x3d1895f2	0.037252374
94	0xbce82c08	-0.028341308
95	0xbd8f4673	-0.06995859
96	0xbcec20e4	-0.028824277
97	0x3d1843b7	0.037173953
98	0xbd37aef5	-0.044844586
99	0x3cb0c431	0.021577926
100	0xbb0bb4dd	-0.002131752
101	0xbd03f808	-0.032218963
102	0xbd00cdbc	-0.031446204
103	0x3d322280	0.043489933
104	0xbc8508ae	-0.01623949
105	0xbdbcc0ad	-0.092164375
106	0xbb8cb771	-0.004294329
107	0x3b498612	0.0030750078
108	0x3b898c3a	0.0041976245
109	0x3dbfaa85	0.09358696
110	0xba264595	-0.0006342766
111	0xbc87770f	-0.016536264
112	0x3d124de0	0.0357188
113	0xbd044b74	-0.03229852
114	0x3d28d7e9	0.041221533
115	0x3b975769	0.0046185744
116	0x3c5d727d	0.013516066
117	0xbd8adbd3	-0.067802094
118	0x3e01529f	0.12629174
119	0xbd382d83	-0.04496528
120	0x3d392ff1	0.045211736
121	0x3cf55f22	0.02995259
122	0x3da06bb3	0.07833042
123	0xbd3492fa	-0.04408548
124	0x3cebfe16	0.028807681
125	0x3c0a9310	0.008457914
126	0xbcf7c2f6	-0.030244332
127	0xbba7f9c4	-0.00512621
128	0x3d564a8f	0.0523172
129	0x3c1413d2	0.009037929
130	0x3c657b95	0.014006515
131	0xbcd126d3	-0.025531208
132	0x3c9fc704	0.019504078
133	0x3c8e13ff	0.01734352
134	0x3d76aaef	0.06022161
135	0xbddb7960	-0.1071651
136	0x3c5a02c6	0.013306325
137	0xbd8da2b0	-0.06915796
138	0x3bb6b6f7	0.0055760103
139	0x3cc65a21	0.024212899
140	0x3cf2dc79	0.029646145
141	0xbcccd0a3	-0.02500183
142	0x3c9b4d7f	0.018957851
143	0x3d9456eb	0.07243141
144	0xbd2d147c	-0.042255864
145	0xbd372956	-0.044717155
146	0x3c90d630	0.017680258
147	0xbc1d0647	-0.009584016
148	0x3d109554	0.03529866
149	0x3cbd2342	0.023088101
150	0x3c943fd6	0.018096846
151	0xbd72efd3	-0.059310745
152	0x3cab232f	0.0208908
153	0xbc9ecd7b	-0.01938509
154	0xbc733067	-0.014843083
155	0xbd30d2be	-0.04316973
156	0x3c9f96be	0.01948106
157	0xbbbbc029	-0.0057296944
158	0xbd34b293	-0.044115614
159	0x3d60a6eb	0.054846685
160	0x3d3a769e	0.04552328
161	0xbdaf1f7e	-0.085509285
162	0xbd3c6cb1	-0.046002094
163	0x3d8ece27	0.06972914
164	0x3d698e3c	0.05702041
165	0xbbd7e6f7	-0.0065888125
166	0xbd14ab2f	-0.036296066
167	0x3cde54ba	0.02714001
168	0x3d1cd5f2	0.03828997
169	0xbcde45e5	-0.027132938
170	0xbc90b17c	-0.017662756
171	0x3d649262	0.055803664
172	0x3ca14e6c	0.019690715
173	0x3ceca2fc	0.02888631
174	0xbd8a7a46	-0.06761603
175	0x39ff394e	0.00048680085
176	0xbc2df52a	-0.010617534
177	0xbbd70f2d	-0.0065630884
178	0xbd09a511	-0.033604685
179	0xbd4aa2a0	-0.049471498
180	0x3d68b22e	0.05681055
181	0xbc4c1320	-0.012455732
182	0xbda66a65	-0.08125762
183	0x3d67f532	0.05663032
184	0x3b6d4d55	0.0036209424
185	0x3d664aea	0.056223787
186	0x3cf87690	0.030329973
187	0xbdb84829	-0.089981385
188	0x3c9f36ab	0.019435247
189	0xbcaf13f4	-0.02137182
190	0x3cfcf7d8	0.0308799
191	0xbcecab0a	-0.028890152
192	0x3ccfdb84	0.025373228
193	0xbc89be90	-0.0168145
194	0xbd776d20	-0.060406804
195	0x3d39bc1e	0.04534542
196	0x3d9d29ff	0.07674026
197	0xbc42ef7f	-0.011897921
198	0xbccc3075	-0.02492545
199	0x3da76d62	0.0817516
200	0xbcf3a86e	-0.0297434
201	0x3d763719	0.06011114
202	0xbc5ce069	-0.013481238
203	0x3c7744fc	0.015092131
204	0x3d0630b0	0.032761276
205	0xbd434e4a	-0.047682084
206	0x3cb8f434	0.022577383
207	0x3b7a8585	0.0038226556
208	0xbbe7ff52	-0.007079997
209	0xbcdd2421	-0.026994767
210	0x3b2e5893	0.0026603087
211	0xbbdb5826	-0.0066938577
212	0xbdb9fbe7	-0.0908125
213	0x39cb3721	0.00038760251
214	0x3bb450c3	0.0055027916
215	0x3d4f9538	0.050679415
216	0xbc8c5b8f	-0.017133502
217	0xbbb78e30	-0.005601667
218	0x3d2004f1	0.039067212
219	0xbd8e5895	-0.069504894
220	0xbcb0a9a4	-0.021565266
221	0xbc4cf5be	-0.012509761
222	0xbbfd4a8e	-0.007729835
223	0xbbbb01bc	-0.005706994
224	0x3d255a4b	0.040369313
225	0xbd051f49	-0.03250054
226	0x3d17d283	0.037065994
227	0x3d20c013	0.039245676
228	0xbd348e73	-0.044081163
229	0xbcd080f1	-0.025452109
230	0x3d070ede	0.032973163
231	0xbc5bd3ee	-0.013417227
232	0xbdac3994	-0.0840942
233	0xbce0d0e4	-0.027443357
234	0x3d2f9c5c	0.042873725
235	0xbc1e30ee	-0.00965522
236	0xbc28fce0	-0.010314196
237	0xbbd5064d	-0.0065009953
238	0x3a02c578	0.00049885316
239	0x3b9d99a2	0.004809574
240	0xbbd20717	-0.0064095366
241	0x3c7a7660	0.015287012
242	0xbd2e3564	-0.042531386
243	0xbd741e2e	-0.059599094
244	0xbdba8ae7	-0.09108525
245	0x3cd6fc59	0.026243376
246	0xbac421b3	-0.0014963656
247	0xbd4616d2	-0.048361607
248	0x3de708ea	0.11280997
249	0x3cfa873d	0.030582065
250	0x3d434fcc	0.047683522
251	0x3cec18be	0.028820392
252	0xbcdaa020	-0.026687682
253	0xbd1eee2b	-0.038801353
254	0x3ca4ec35	0.020132164
255	0xbbc9ad41	-0.0061546867

mlp_extractor.policy_net.0.bias f4 [64]
0	0xbbbb6062	-0.005718277
1	0xbbe5c1ed	-0.007011643
2	0x3c33c3c6	0.010971969
3	0x3b9f9ecd	0.0048712255
4	0x3be99831	0.0071287383
5	0x3b9c42cb	0.0047687045
6	0x3c01865b	0.007905568
7	0x3b0825cf	0.0020774489
8	0x3af5f6b6	0.0018765542
9	0xbade500a	-0.0016961109
10	0x3b49840d	0.0030748874
11	0xbb7c03a9	-0.003845433
12	0x3c01669a	0.007897997
13	0xbb9c4b00	-0.004769683
14	0x3b4f2d8c	0.0031612841
15	0x3bcf5b19	0.0063279984
16	0x3bb7d219	0.0056097624
17	0xbb94133b	-0.004518894
18	0x3b83ac72	0.00401836
19	0x3b22f493	0.0024865016
20	0x3c4af007	0.012386329
21	0xbba9af36	-0.0051783575
22	0xbc7b8715	-0.01535203
23	0x38d16c80	9.986106e-05
24	0xbb9baf74	-0.0047511403
25	0xbac4c2f2	-0.0015011712
26	0xbbd9abcb	-0.006642794
27	0xba154347	-0.0005693924
28	0xbc2287f3	-0.009920108
29	0x3bbcd3d4	0.0057625566
30	0xbc34d3e1	-0.011036844
31	0xb9980290	-0.00028993608
32	0xba5fa9d7	-0.0008532083
33	0x3b884ed2	0.0041597867
34	0x3b492118	0.0030689891
35	0xbb88c698	-0.004174065
36	0x3bc8b76e	0.006125382
37	0x3c61eb2c	0.0137889795
38	0x3ac2de99	0.0014867365
39	0x3b010469	0.0019686467
40	0xbc00ff81	-0.007873417
41	0x3c78aafe	0.015177486
42	0x3bf41a40	0.0074494183
43	0x39f98ed0	0.00047599385
44	0xbc6d68b5	-0.014490296
45	0xbaafb9b1	-0.0013406781
46	0xbbee8cf0	-0.0072799847
47	0xbbcfe43a	-0.0063443454
48	0xbb78b1d9	-0.0037947802
49	0xbb386e20	-0.0028141811
50	0x3c23ac5c	0.009989824
51	0x3c4adc8a	0.012381682
52	0xbaf22b9a	-0.0018476129
53	0xba530f86	-0.00080513244
54	0x3bd83b4a	0.0065988647
55	0x3c191971	0.009344445
56	0xbc54c3d4	-0.012986142
57	0x3aa3c7a9	0.0012495416
58	0x3ca17ba8	0.019712284
59	0x3c23e6e2	0.010003777
60	0xbb8e7d31	-0.00434842
61	0xbb005cc9	-0.0019586554
62	0x3c20b439	0.009808593
63	0x3b6782ad	0.0035325692

mlp_extractor.policy_net.2.weight f4 [64, 64]
0	0x3d602473	0.05472226
1	0xbe260144	-0.1621142
2	0x3d5a8130	0.05334586
3	0xbd1cf905	-0.03832342
4	0x3e0c5cc4	0.13707262
5	0x3dcc2062	0.09967114
6	0x3dd35e6b	0.10320743
7	0x3cace8e9	0.021107154
8	0x3e0a5d5f	0.13512181
9	0x3e1aabf2	0.15104654
10	0xbe48c5b5	-0.19606669
11	0x3ddd6fb7	0.108123235
12	0x3d34b897	0.04412135
13	0x3bd0cae4	0.0063718427
14	0xbec96694	-0.39336073
15	0x3d955bab	0.07292875
16	0x3e1b0359	0.15137996
17	0xbcb1d8f2	-0.021709893
18	0xbdede5ad	-0.11616073
19	0xbeaceb55	-0.33773294
20	0x3dfc1b09	0.12309844
21	0xbb8d2cbe	-0.004308312
22	0x3c58b7e2	0.013227435
23	0x3e081e94	0.13292915
24	0xbe89f7f5	-0.2694699
25	0xbe071a57	-0.13193642
26	0x3e3ae742	0.1825228
27	0xbe64e3bf	-0.22352503
28	0x3ecbe906	0.3982622
29	0x3cb312c1	0.021859528
30	0x3e17bccf	0.14818119
31	0x3e972b97	0.29525444
32	0x3eeaa449	0.45828465
33	0x3ddab346	0.10678725
34	0xbd7ff30b	-0.062487643
35	0xbc77ee16	-0.015132448
36	0xbc1a753a	-0.009427363
37	0x3e1937a0	0.14962626
38	0xbe3bca23	-0.18338828
39	0xbdf3e0e2	-0.11908127
40	0xbbb1395e	-0.00540845
41	0xbe4a1116	-0.1973308
42	0xbe9a502a	-0.30139285
43	0x3e2ce81c	0.16885418
44	0xbc8d55ea	-0.017252881
45	0x3e04e12d	0.12976523
46	0x3e7a5848	0.24447739
47	0xbe0d01e3	-0.13770251
48	0x3e80af8f	0.2513394
49	0xbe573218	-0.21015203
50	0xbe9920a3	-0.29907712
51	0xbb894a5a	-0.0041897716
52	0x3e12b812	0.1432803
53	0xbdbd31b7	-0.09237998
54	0xbbab61ad	-0.0052301497
55	0xbe50bf30	-0.20385432
56	0xbe40855d	-0.18800874
57	0x3dd24a7e	0.102681145
58	0x3b445109	0.0029955527
59	0xbd47b560	-0.048756957
60	0x3dd01d1e	0.10161804
61	0x3e960b28	0.29305387
62	0xbe90609b	-0.28198704
63	0xbe0f3d3e	-0.13988206
64	0xbe5b0764	-0.21389538
65	0x3e2a53b6	0.16633496
66	0xbed95d37	-0.4245393
67	0x3e185a13	0.1487811
68	0xbd9ab286	-0.07553582
69	0x3ea13168	0.31483006
70	0x3da28f1b	0.079374515
71	0x3d7a7b8e	0.061152987
72	0xbf12add3	-0.57296485
73	0xbd5be601	-0.053686146
74	0x3e19ce48	0.15020096
75	0x3e8f6f41	0.28014567
76	0x3e2be48b	0.16786401
77	0x3ea5f48c	0.32413137
78	0xbd5f9c86	-0.05459263
79	0xbd8b5ea3	-0.0680516
80	0xbced4d97	-0.028967662
81	0x3e96f881	0.29486468
82	0xbe575ec1	-0.2103224
83	0x3ddfe08c	0.10931501
84	0x3dfd4b88	0.12367922
85	0x3c9b4706	0.018954765
86	0x3e7062b4	0.23475152
87	0x3be6bef1	0.007041805
88	0x3e203216	0.15644106
89	0xbe8cef0c	-0.27526128
90	0x3d51f1bb	0.051255923
91	0xbec75a13	-0.3893591
92	0xbd4326de	-0.04764449
93	0x3d6a0d7a	0.05714176
94	0xbd993cc2	-0.07482292
95	0xbdefdf53	-0.117125176
96	0xbdfa8d14	-0.1223394
97	0xbae4503b	-0.001741893
98	0xbc179075	-0.00925075
99	0xbe31e053	-0.17370729
100	0xbd588435	-0.052860457
101	0x3e0e0fb4	0.13873178
102	0x3e114d2c	0.14189595
103	0x3e0908a8	0.13382208
104	0x3d848864	0.06471327
105	0xbcd8f391	-0.026483329
106	0x3d329d04	0.043606773
107	0x3e09d205	0.13459022
108	0x3dabfb7b	0.083975755
109	0xbbdc8947	-0.006730232
110	0x3dcc13e5	0.09964732
111	0x3e1f342c	0.15547246
112	0x3de194b6	0.110146925
113	0xbe0232d7	-0.12714706
114	0x3d811c8c	0.06304273
115	0xbc34844d	-0.011017871
116	0xbd5a9f0e	-0.053374343
117	0x3c97f194	0.01854781
118	0xbe8df87b	-0.27728638
119	0x3cc3ddaf	0.023909418
120	0xbe2fbffd	-0.17163081
121	0x3e3c4627	0.18386136
122	0xbe774663	-0.24147944
123	0xbe86981c	-0.26287925
124	0x3e1100f4	0.1416052
125	0x3e322eaa	0.17400613
126	0x3dd756a2	0.10514571
127	0xbe8580c3	-0.260748
128	0xbea5760b	-0.32316622
129	0xbecd0692	-0.40044075
130	0xbd90667e	-0.07050799
131	0xbd1c9ee3	-0.038237464
132	0xbe3fe93a	-0.18741313
133	0xbcd7b03b	-0.02632915
134	0x3ecdd077	0.4019811
135	0xbbca684e	-0.006176985
136	0x3e443c09	0.19163527
137	0x3bfca7ed	0.007710448
138	0xbd224893	-0.039619993
139	0xbed745f7	-0.42045566
140	0x3e9f9d41	0.31174663
141	0x3dae7587	0.0851851
142	0xbe411404	-0.18855292
143	0xbe0f8b29	-0.14017929
144	0x3da68da5	0.08132485
145	0x3dbb3e05	0.09142689
146	0x3ddb946a	0.10721667
147	0xbdf3255f	-0.11872362
148	0x3c886a0f	0.016652135
149	0xbe7acbec	-0.24491853
150	0x3b85643c	0.0040707868
151	0x3ebaa921	0.3645716
152	0x3ca782bb	0.02044808
153	0xbd40cd30	-0.047070682
154	0xbe98373c	-0.2972964
155	0xbb75484b	-0.0037427123
156	0xbea144dc	-0.31497848
157	0x3c805366	0.015664767
158	0xbbdf35ed	-0.0068118484
159	0xbd8fde8e	-0.07024871
160	0x3d9ec341	0.077520855
161	0x3c722293	0.014778751
162	0x3d9f8de9	0.07790739
163	0xbe4a34c2	-0.19746688
164	0xbde89ef8	-0.11358446
165	0xbde6b369	-0.112646885
166	0xbe9f526a	-0.31117564
167	0x3e38980f	0.18026756
168	0xbe8069f2	-0.2508083
169	0x3e4de60d	0.20107289
170	0xbe611fcc	-0.21984786
171	0x3d403bd2	0.04693205
172	0x3bdd1e50	0.0067479983
173	0xbd31b683	-0.043386947
174	0xbe0b357c	-0.13594621
175	0xbe55d7c8	-0.20883095
176	0x3b4139ad	0.002948384
177	0xbe0c823f	-0.1372156
178	0xbd29c3cb	-0.04144649
179	0x3ccbabde	0.024862226
180	0xbe69223f	-0.2276697
181	0xbda1e68e	-0.07905303
182	0x3d95252a	0.07282479
183	0xbd9d9cfa	-0.076959565
184	0x3e7b5264	0.24543148
185	0x3e071fa0	0.13195658
186	0xbe3e55ab	-0.18587367
187	0xbe319a6b	-0.17344062
188	0xbd81c786	-0.06336884
189	0xbe903662	-0.2816649
190	0xbd1e879e	-0.038703553
191	0xbe063ff0	-0.13110328
192	0xbbef4a8c	-0.007302588
193	0xbdf4cc2a	-0.11953004
194	0xbda34740	-0.07972574
195	0x3dda53bd	0.10660503
196	0xbdfea1f8	-0.12433237
197	0xbd93c391	-0.07215036
198	0xbd5e35b4	-0.054250434
199	0x3e0e6993	0.13907461
200	0xbe247318	-0.1605953
201	0x3e0077a5	0.12545641
202	0xbe0ac846	-0.13552961
203	0x3c272602	0.010201933
204	0xbc2ac481	-0.010422827
205	0xbda5c3c5	-0.08093981
206	0x3e113bfa	0.14183035
207	0x3e82b4e2	0.25528628
208	0x3d88525e	0.06656335
209	0xbd3853a5	-0.045001645
210	0xbdcd7df6	-0.10033791
211	0x3e5b9714	0.2144435
212	0xbd5366ca	-0.0516117
213	0xbe4ac478	-0.1980151
214	0x3c0b9cc9	0.008521267
215	0x3d756435	0.059910018
216	0x3e972439	0.29519823
217	0x3dbbb3cc	0.09165153
218	0x3deb3dca	0.11486395
219	0xbe48bff2	-0.19604471
220	0x3bf1b8cd	0.0073767663
221	0x3e1991c0	0.14997005
222	0x3adc623e	0.0016813946
223	0x3e0a70aa	0.1351954
224	0x3cdedc82	0.027204756
225	0xbea6a1ba	-0.32545263
226	0x3d7a95bb	0.06117795
227	0x3e810fb2	0.25207287
228	0x3e1992ed	0.14997454
229	0xbbcdc6ee	-0.006279818
230	0x3cb46e78	0.022025332
231	0xbd8073ef	-0.062721126
232	0xbe7514ea	-0.2393376
233	0x3b379b86	0.0028016283
234	0x3dd4c9a7	0.10390025
235	0x3ea3e56e	0.32010978
236	0x3dc4b291	0.09604371
237	0x3e70e8bc	0.23526281
238	0xbd8edb6c	-0.06975445
239	0xbdc8f6c1	-0.098126896
240	0x3da5fa11	0.08104337
241	0x3cbd1ea1	0.023085894
242	0xbe7c13e9	-0.2461697
243	0x3ea2856c	0.31742418
244	0xbe42ac92	-0.19011143
245	0x3deb665c	0.11494133
246	0x3e674865	0.2258621
247	0xbe602897	-0.21890484
248	0xbe8f249d	-0.2795762
249	0xbc883119	-0.016624974
250	0x3ee85a73	0.45381507
251	0xbe82bc6a	-0.25534374
252	0x3eb9574d	0.36199418
253	0xbf115635	-0.56772166
254	0xbda5d7b0	-0.0809778
255	0x3c9cc33b	0.019136062

mlp_extractor.policy_net.2.bias f4 [64]
0	0xbc3e0e04	-0.011600021
1	0xbbcd1ef0	-0.0062597916
2	0xbb1c1201	-0.0023814442
3	0x3b8a565e	0.0042217216
4	0xbb1e520b	-0.0024157788
5	0x3ba60e6a	0.0050676363
6	0x3b82e603	0.0039947047
7	0xbc54db5d	-0.012991753
8	0x3ba42ae5	0.0050099962
9	0x3c20d3e0	0.00981614
10	0x3c5ba4da	0.013406003
11	0xbaa15f1e	-0.0012311672
12	0x3a946ab8	0.0011323309
13	0x3bcd1125	0.0062581473
14	0xbba397c9	-0.0049924594
15	0x3c00e109	0.007866153
16	0xbc4c0dd6	-0.012454471
17	0x3bf8359c	0.00757475
18	0x3b81d63e	0.0039623072
19	0x3be21419	0.0068993685
20	0xbc699456	-0.014256557
21	0x3af8ca2d	0.0018981152
22	0xbaf8b580	-0.001897499
23	0xbbc64d33	-0.0060516833
24	0xbc0e7a73	-0.008696186
25	0xbc068a9e	-0.00821176
26	0xbc18b7f2	-0.0093212
27	0xbbbf2ced	-0.005834213
28	0x3cb47d22	0.022032324
29	0xba8aeb61	-0.0010598713
30	0xbb267e75	-0.0025404964
31	0xbc294846	-0.010332173
32	0xbc11a03e	-0.008888302
33	0x39e62ada	0.00043900945
34	0x3c1f08bb	0.009706671
35	0xbae66134	-0.0017576576
36	0xbb2e7d66	-0.0026625036
37	0xbbca342c	-0.00617077
38	0xb9c733ac	-0.00037994736
39	0x3bc22feb	0.0059261224
40	0xba8965dc	-0.0010482627
41	0x3ba4c781	0.0050286655
42	0xbbae21db	-0.0053140945
43	0x3c539847	0.012914724
44	0x3c1ebb19	0.009688162
45	0xba9ae29e	-0.0011816805
46	0x3b2a0ba7	0.0025946887
47	0x3c2b5631	0.010457561
48	0x3c862fb2	0.016380165
49	0x3af3286c	0.0018551475
50	0xbaaeccda	-0.0013336197
51	0x3c16f069	0.009212592
52	0x39dc4ee8	0.0004202046
53	0xbc4a1463	-0.012333962
54	0x3c2baa02	0.010477545
55	0x3b7bd80f	0.0038428342
56	0xbc024ca6	-0.007952845
57	0x3bbcd279	0.005762395
58	0x3acc5365	0.0015588818
59	0xbc1fc0b3	-0.009750533
60	0xbb413cc0	-0.0029485673
61	0x3b229e07	0.002481343
62	0xbaf85da7	-0.0018948809
63	0xbbb9ef8e	-0.005674309

mlp_extractor.value_net.0.weight f4 [64, 1092]
0	0x3d9d0b13	0.07668128
1	0xbd10b66e	-0.03533023
2	0x3e2a2d11	0.16618754
3	0xbc22873d	-0.009919939
4	0x3dd398cf	0.1033188
5	0x3d8f079f	0.069838755
6	0xbd4e431f	-0.05035698
7	0xbdb67439	-0.089088865
8	0x3d2b6120	0.041840672
9	0x3cdd559e	0.027018365
10	0x3db51b49	0.08843095
11	0x3e09e534	0.1346634
12	0x3dc0a8aa	0.0940717
13	0xbcdc5384	-0.026895292
14	0x3d3fe47c	0.04684876
15	0x3db7b2c3	0.08969643
16	0xbd07bc52	-0.03313858
17	0xbd1bfee6	-0.038084887
18	0x3d5f0085	0.054443855
19	0x3d320702	0.043463714
20	0x3a7dd022	0.0009682198
21	0x3c60b48e	0.013714923
22	0xbc342140	-0.010994256
23	0x3db0e7da	0.08637972
24	0x3da0bcf6	0.078485414
25	0x3d67f595	0.05663069
26	0xbb068212	-0.0020524305
27	0xbc2be055	-0.010490497
28	0xbd997371	-0.07492722
29	0xbda7dc3b	-0.081963025
30	0xbcbd9577	-0.02314256
31	0xbe0cd552	-0.1375325
32	0xbbbdb28a	-0.005789106
33	0xb8aba22a	-8.184121e-05
34	0xbda44fbc	-0.080230206
35	0xbbe5cc48	-0.0070128776
36	0xbde53fa4	-0.11193779
37	0xbd16bc0d	-0.036800433
38	0x3c97f7ee	0.01855084
39	0x3cafe195	0.02146987
40	0xbd24e672	-0.040258832
41	0xbd3f5d2c	-0.046719715
42	0xbdb2ce61	-0.0873077
43	0xbdebd909	-0.115160055
44	0xbbc838bf	-0.0061102803
45	0x3dfbeaa7	0.12300616
46	0xbc537d9a	-0.012908364
47	0xbca5ad03	-0.0202241
48	0xbd34bca9	-0.044125233
49	0xbd11c66d	-0.035589624
50	0x3db087c4	0.08619645
51	0xbd9ac887	-0.07557779
52	0xbd27ab59	-0.040934894
53	0xbcddd351	-0.027078303
54	0xbc96a079	-0.018387066
55	0x3d85de6a	0.06536563
56	0x3d8e7be2	0.069572225
57	0xbd2b6254	-0.04184182
58	0xbc64ccf0	-0.0139648765
59	0xbce308c8	-0.027714148
60	0x3d0d24f8	0.034459084
61	0x3dcc7682	0.09983541
62	0x3d133a0b	0.035944026
63	0x3d391494	0.04518564
64	0xbc0ae480	-0.00847733
65	0xbd256487	-0.040379073
66	0x3d81a9a6	0.06331186
67	0x3d1f63c9	0.038913522
68	0x3cd4b456	0.025964897
69	0xbb9f45c9	-0.004860614
70	0x3d04c178	0.03241107
71	0xbcab2141	-0.02088988
72	0x3e0ec584	0.13942534
73	0x3ad856df	0.0016505382
74	0x3c5b7998	0.013395689
75	0x3d6a933c	0.05726932
76	0x3dd19f99	0.10235519
77	0x3d881baa	0.066459015
78	0x3e29ca3c	0.16581053
79	0x3cf089e1	0.02936262
80	0xbc8b0465	-0.016969869
81	0x3cae0a91	0.021245273
82	0x3d56299e	0.052285783
83	0x3c5b798b	0.013395677
84	0x3d39ff6e	0.045409612
85	0xbd927e3d	-0.07152984
86	0x3b91dae4	0.0044511426
87	0xbcfbd48e	-0.030741002
88	0xbd246a97	-0.040140714
89	0xbdd629b3	-0.10457172
90	0x3d1d9d45	0.038480062
91	0xbbdbec66	-0.0067115305
92	0x3c99dc65	0.01878185
93	0xbd7f605e	-0.062347762
94	0x3cfedfd5	0.03111259
95	0x3db8c3f4	0.0902175
96	0xbbb46962	-0.0055057267
97	0x3c6b96ea	0.014379242
98	0x3cdd688a	0.027027387
99	0xbd44def3	-0.048064183
100	0xbddd319e	-0.10800479
101	0xbcd5d31c	-0.026101641
102	0xbd2499f9	-0.040185902
103	0x3cb8185e	0.022472557
104	0xbd9ff0b6	-0.07809584
105	0x3c61d08c	0.013782632
106	0xbd846ceb	-0.06466087
107	0xbd164cfd	-0.036694515
108	0xbce17dcb	-0.027525803
109	0xbdb0168b	-0.0859805
110	0x3d01344a	0.031544007
111	0x3d911f62	0.07086064
112	0xba878f52	-0.0010342395
113	0xbd6fba60	-0.05852735
114	0xbbb4c190	-0.0055162385
115	0xbd9c2641	-0.07624484
116	0x3c58b91f	0.01322773
117	0x3b3abcc6	0.0028493865
118	0xbd619ee8	-0.055083185
119	0x3c4425cc	0.011971902
120	0xbd422df1	-0.047407094
121	0xbd1e2aec	-0.038615152
122	0xbc4c4757	-0.012468181
123	0x3ddd2d3c	0.107996434
124	0x3d68a580	0.056798458
125	0xbd1937a6	-0.037406586
126	0x3d818bce	0.06325494
127	0xbc1dc9b3	-0.009630608
128	0xbc8a0d9a	-0.016852189
129	0xbd7b67de	-0.061378352
130	0x3d05a572	0.032628484
131	0xbb90aaf3	-0.00441491
132	0xbb9866bf	-0.00465092
133	0x3cdb2e13	0.026755368
134	0x3dd7c2b7	0.10535186
135	0xbd86da23	-0.06584575
136	0xbcf52abb	-0.029927602
137	0x3caf83e2	0.021425191
138	0x3dd3696d	0.10322843
139	0xbd97e913	-0.07417502
140	0x3cc568f9	0.024097906
141	0xbcc75b4a	-0.024335522
142	0x3afb81c6	0.0019188456
143	0xbcf642b3	-0.030061102
144	0x3d3124a6	0.04324784
145	0x3d517ce6	0.051144503
146	0xbc8b80ad	-0.01702913
147	0x3c8c860e	0.017153766
148	0x3d885829	0.0665744
149	0x3d491aee	0.049097948
150	0xbcb5419d	-0.022126013
151	0xbbe8c8f7	-0.007104035
152	0x3dc5e908	0.09663588
153	0xbd62bc4f	-0.055355366
154	0xbcc01566	-0.023447704
155	0x3dc0c151	0.09411872
156	0x3cc3e675	0.023913601
157	0x3ca9dba6	0.02073462
158	0xbbc9bce9	-0.006156553
159	0x3d8d68da	0.069047645
160	0x3cd35660	0.025798023
161	0x3d89dc43	0.06731465
162	0x3da97736	0.08274691
163	0x3db173c0	0.08664656
164	0x3dd6d19f	0.10489201
165	0x3e185237	0.14875112
166	0x3d6d07d3	0.05786879
167	0x3dcf2200	0.10113907
168	0xbcb98cf8	-0.022650227
169	0xbd433f92	-0.047668047
170	0x3c9ccdaf	0.019141046
171	0x3deff1bd	0.1171603
172	0xbd0c2b46	-0.034220956
173	0x3d0c82d2	0.034304447
174	0x3cd583ca	0.026063818
175	0x3b3fc3a5	0.00292609
176	0xbc585e03	-0.013206008
177	0x3dfdbde1	0.12389732
178	0x3c65bed9	0.014022552
179	0xbc874728	-0.016513422
180	0x3c90ecf6	0.017691117
181	0xbaf686f4	-0.001880853
182	0xbd2b5b6e	-0.04183524
183	0x3d3e7a56	0.046503387
184	0xbcaa17b5	-0.020763258
185	0xbc1c2b49	-0.009531804
186	0x3b1677ac	0.0022959514
187	0x3cd97d22	0.026548926
188	0x3d05dd88	0.03268197
189	0x3d9622a1	0.07330824
190	0x3df2620f	0.118351094
191	0x3d45d9d4	0.04830344
192	0x3db85a39	0.090015836
193	0xbda1ffc7	-0.07910114
194	0xbcf086f7	-0.029361231
195	0xbb5a6cb5	-0.0033328955
196	0xbb2ff5ed	-0.0026849464
197	0x3d7f4e2a	0.062330402
198	0xbc8691cb	-0.016426941
199	0xbdc789a7	-0.09743052
200	0x3cc41ffc	0.023941033
201	0x3db7b38c	0.08969793
202	0xbcc478b8	-0.023983344
203	0xbd14bb3c	-0.036311373
204	0xbd8fa866	-0.07014541
205	0xbc6a1ed6	-0.014289578
206	0xbcd1bcd8	-0.025602743
207	0x3dc75f53	0.097349785
208	0xbd7e4b39	-0.062083457
209	0xbdaa8b15	-0.08327309
210	0xbc8484cf	-0.01617661
211	0x3a94ca6f	0.0011351834
212	0xbbdf8c53	-0.006822148
213	0x3ca9f2e9	0.020745711
214	0x3db7ffdc	0.08984348
215	0x3dbb8881	0.091568954
216	0x3d0ea660	0.034826636
217	0x3d8bfb76	0.06835072
218	0x3cacfe30	0.0211173
219	0xbcd22025	-0.025650093
220	0xbc395b42	-0.011313261
221	0xbcfdf27b	-0.030999413
222	0x3d10db37	0.03536531
223	0x3d1d42e9	0.03839389
224	0x3dc437d8	0.09580964
225	0xbd38982c	-0.045066997
226	0x3dcda1c9	0.10040624
227	0x3ae34af8	0.0017341068
228	0xbcad4fcf	-0.02115622
229	0x3ce839cb	0.02834787
230	0xbd4e7f99	-0.050414655
231	0x3cba98c7	0.022777928
232	0x3d896f4c	0.06710681
233	0xbdacd094	-0.084382206
234	0xbc9731f0	-0.01845643
235	0x3c9da370	0.019242972
236	0xbd2091f0	-0.039201677
237	0x3d7b0387	0.06128266
238	0xbd03000f	-0.031982478
239	0x3d154f86	0.036452793
240	0x3d40d3de	0.047077052
241	0x3d93c534	0.07215348
242	0x3b86f9a0	0.004119113
243	0xbd2562e6	-0.04037752
244	0x3d71f36d	0.05907004
245	0xbd23e6c6	-0.040015005
246	0x3ddac6cc	0.10682449
247	0x3e1762f5	0.14783843
248	0xbc5fa988	-0.013651259
249	0xbdc5f947	-0.096666865
250	0x3cbe1414	0.023202933
251	0xbdb2fdfc	-0.0873985
252	0x3d41cf8c	0.047317073
253	0xbd3cf3eb	-0.046131056
254	0xbcc3e52b	-0.023912987
255	0xbd03a00b	-0.03213505

mlp_extractor.value_net.0.bias f4 [64]
0	0x3ce5957e	0.028025385
1	0x3cedd260	0.029030979
2	0xbbc5c6a5	-0.006035643
3	0xbdc0141a	-0.09378834
4	0x3da171dc	0.07883045
5	0x3ab8eafd	0.0014108118
6	0x3b6da041	0.003625885
7	0xbcb03ee2	-0.02151436
8	0x3da82b0f	0.08211338
9	0xbcde7aa8	-0.027158096
10	0xbce684e1	-0.028139533
11	0xbd80ee02	-0.062953964
12	0xbc3f8527	-0.011689461
13	0xbced6a02	-0.028981213
14	0xbd15d5b6	-0.036580764
15	0x3cce9aea	0.025220353
16	0xbc130b35	-0.00897484
17	0xbdaff2d4	-0.08591238
18	0x3d05b256	0.032640778
19	0xbb3f8fa4	-0.0029229904
20	0xbc448db6	-0.011996677
21	0x3b8c561b	0.0042827255
22	0x3c917dac	0.01776012
23	0xbbed1b53	-0.0072359233
24	0xbc89cdc5	-0.016821751
25	0xbae2edbf	-0.0017313285
26	0x3ce0c5ee	0.02743813
27	0x3d87753e	0.06614159
28	0xbd69121b	-0.056902032
29	0x3c35bbe4	0.01109216
30	0x3da391ea	0.07986815
31	0x3d8b29c9	0.06795079
32	0x3d8bd324	0.06827381
33	0x3cfc565d	0.0308029
34	0xbc91a5a0	-0.017779171
35	0x3bee0f0d	0.007264978
36	0xbcf823fe	-0.0302906
37	0xbceb8bfd	-0.028753275
38	0xbd135fa3	-0.03597988
39	0xbb616242	-0.0034390842
40	0x3cd16bad	0.02556404
41	0x3cf3cc66	0.02976055
42	0xbca2f3b8	-0.019891605
43	0xbc705709	-0.014669188
44	0xbca481a8	-0.020081356
45	0xbc180bc9	-0.009280154
46	0xbdbeb5bf	-0.09312009
47	0x3d4b973d	0.04970478
48	0xbc2af292	-0.01043381
49	0x3a2389f2	0.0006238512
50	0x3c2afe8a	0.010436663
51	0xbd7eb1ce	-0.062181287
52	0x3d32b3cb	0.043628495
53	0xbc8c6326	-0.017137121
54	0x3d94a389	0.07257754
55	0xbc9d787f	-0.019222496
56	0xbdbfe3e7	-0.09369641
57	0x3d153a61	0.036432628
58	0xbc3c8b0c	-0.011507761
59	0x3c9c9221	0.019112648
60	0xbd6ffeb6	-0.05859252
61	0x3cda232e	0.026628103
62	0xbd69e0df	-0.05709922
63	0xbd4d2ed9	-0.050093506

mlp_extractor.value_net.2.weight f4 [64, 64]
0	0x3e8d6b64	0.27620995
1	0x3e4151d9	0.18878879
2	0xbde9b90c	-0.11412248
3	0x3d318807	0.043342616
4	0xbe850979	-0.2598379
5	0xbd883f47	-0.06652694
6	0x3c56d374	0.013111938
7	0xbe72feb2	-0.23729971
8	0xbc08490b	-0.008318196
9	0x3d869e7f	0.065731995
10	0x3aaa62c7	0.0012999409
11	0xbdf0dcdc	-0.117608756
12	0x3e46a3b4	0.19398385
13	0x3d9c38d3	0.07628026
14	0x3eae96fc	0.34099567
15	0x3dcd95e3	0.10038354
16	0x3d90f8a4	0.070786744
17	0x3e8b9239	0.27259997
18	0xbed19624	-0.4093486
19	0x3d9b66a1	0.07587934
20	0x3e7a2c4c	0.2443096
21	0xbd870ad7	-0.065938644
22	0x3dfe1c1b	0.124077044
23	0xbead3c33	-0.3383499
24	0xbb646a33	-0.0034853339
25	0x3f6ca930	0.9244566
26	0xbdc98f1b	-0.09841748
27	0x3dafbc4b	0.08580836
28	0xbee96b0f	-0.45589492
29	0xbdcddd66	-0.10051994
30	0x3d843635	0.06455652
31	0x3e07760b	0.13228624
32	0xbea6cda5	-0.3257877
33	0xbea4b935	-0.32172552
34	0x3ee0d8f2	0.43915516
35	0xbe6e08d6	-0.23245558
36	0xbe0fa5da	-0.14028111
37	0xbdc0bb23	-0.094106935
38	0xbe72cb43	-0.2371035
39	0xbe14a310	-0.14515328
40	0x3dab1e2b	0.083553635
41	0xbe55f0b5	-0.20892604
42	0xbeafa7cc	-0.34307706
43	0x3d660b7c	0.056163296
44	0xbd7c0204	-0.06152536
45	0xbd626a98	-0.055277437
46	0x3e8cb279	0.27479914
47	0x3d074950	0.0330289
48	0x3e140413	0.14454679
49	0x3df98544	0.121836215
50	0xbe51b75b	-0.20480101
51	0xbe2b9b78	-0.16758525
52	0xbe43497c	-0.19071001
53	0x3c6cf0cb	0.014461706
54	0xbeae68fc	-0.34064472
55	0xbe33fb92	-0.17576435
56	0x3e92ebb9	0.28695467
57	0x3d86ac76	0.06575863
58	0x3e9f3c80	0.31100845
59	0xbd81473b	-0.06312414
60	0xbd43c5d0	-0.04779607
61	0x3d2bab45	0.041911382
62	0xbe47279a	-0.194487
63	0x3e1cd5b5	0.15315898
64	0xbed573c6	-0.4168989
65	0xbb120d2b	-0.002228568
66	0xbe5b9f7d	-0.21447559
67	0x3ef20cdc	0.47275436
68	0xbea530ff	-0.32263944
69	0x3e288872	0.164583
70	0xbcb9a6a5	-0.02266247
71	0x3d5de6a7	0.054175045
72	0xbf5a6e02	-0.8532411
73	0x3e540fac	0.20709103
74	0x3ea9d741	0.33172038
75	0x3ddaf400	0.106910706
76	0xbe408ebe	-0.18804452
77	0x3f2e2f2d	0.68040735
78	0x3e3c5e4d	0.18395348
79	0xbdaad3a4	-0.083411485
80	0xbe24e345	-0.16102321
81	0x3eaeb078	0.3411901
82	0xbeaf28f8	-0.34210944
83	0xbe991084	-0.29895413
84	0x3e4cd66f	0.20003675
85	0xbd2f6c8a	-0.04282812
86	0x3d88ee32	0.06686057
87	0xbedfd138	-0.4371431
88	0xbe038bf9	-0.12846364
89	0x3ebbd7b9	0.3668802
90	0xbe75814a	-0.23975101
91	0xbee5c7d7	-0.44879028
92	0x3ec05a6a	0.3756898
93	0xbe715e67	-0.23571168
94	0xbebf1c29	-0.37326172
95	0xbea611b6	-0.32435387
96	0xbd53aaf3	-0.0516767
97	0xbd94578b	-0.0724326
98	0x3df1fdfe	0.11816023
99	0x3e247b78	0.16062725
100	0x3c899402	0.016794208
101	0xbe6376e7	-0.22213326
102	0x3ef10510	0.47074175
103	0xbe637bd9	-0.22215213
104	0x3d060bb0	0.03272599
105	0x3e8bef29	0.27330902
106	0x3e064593	0.13112478
107	0xbeb3e861	-0.3513823
108	0x3d997f18	0.07494944
109	0x3e898b6e	0.2686419
110	0x3f26ef74	0.65209126
111	0xbef0e490	-0.4704938
112	0x3e0f5782	0.13998225
113	0xbdb1a540	-0.08674097
114	0x3e3ebe63	0.18627314
115	0x3ea81d74	0.3283497
116	0xbebf2662	-0.3733397
117	0x3ea297d2	0.31756455
118	0xbef0bdda	-0.47019845
119	0xbd634c60	-0.05549276
120	0x3f1193e3	0.5686628
121	0xbf003c4c	-0.50092006
122	0x3e9b3c2b	0.30319342
123	0x3e60ee3d	0.2196588
124	0x3f346b7c	0.7047651
125	0x3d2b558f	0.041829642
126	0x3e8b0cd7	0.27158234
127	0x3f4d0b5a	0.80095446
128	0x3ea7842e	0.32718033
129	0xbe0cffdb	-0.13769476
130	0x3e0ed235	0.13947375
131	0x3ee9f207	0.45692465
132	0xbd4efe07	-0.050535228
133	0x3e68c0a9	0.22729744
134	0xbe100790	-0.14065385
135	0xbe51a4a4	-0.20472962
136	0xbd085689	-0.03328565
137	0x3e3e2f62	0.18572763
138	0x3e411b2d	0.18858023
139	0x3edce1e3	0.43141088
140	0xbe19a6f3	-0.15005092
141	0xbd84d9d1	-0.06486858
142	0x3e364279	0.17798795
143	0x3d86517e	0.06558512
144	0xbe179c19	-0.1480564
145	0xbcd3cd9e	-0.025854882
146	0xbd1279b3	-0.035760593
147	0xbebb33d5	-0.36562982
148	0xbeaffe95	-0.34373918
149	0x3ee09b39	0.43868425
150	0x3ecbe340	0.39821815
151	0xbe40e26e	-0.18836376
152	0xbe57f20b	-0.21088426
153	0xbe9bafb3	-0.30407485
154	0xbc503713	-0.012708443
155	0xbd266a74	-0.040628865
156	0x3ddcc6f5	0.107801355
157	0x3ed3de6e	0.41380638
158	0xbd3dc52e	-0.046330623
159	0x3d454449	0.048160825
160	0xbc9de8e1	-0.019276084
161	0x3e8f0bb4	0.27938616
162	0x3e1184a3	0.14210753
163	0x3e15d53d	0.14632125
164	0xbf1a83c7	-0.60357326
165	0xbe922fde	-0.28552145
166	0xbe69afe5	-0.22821005
167	0xbe0801f7	-0.13282
168	0x3e2b2c72	0.16716173
169	0x3ea592da	0.323386
170	0xbdd5c1da	-0.10437365
171	0xbd932330	-0.07184446
172	0xbe5cacf5	-0.21550353
173	0xbe20ca82	-0.1570225
174	0x3d5dd20a	0.054155387
175	0x3e944fe3	0.289672
176	0xbeb420d9	-0.3518131
177	0x3e7a60a5	0.2445093
178	0x3e5e13bc	0.21687216
179	0xbe419863	-0.18905787
180	0x3e23a22b	0.15979831
181	0x3e3e25cc	0.18569106
182	0xbe54e72f	-0.20791315
183	0x3e63a164	0.22229534
184	0xbd8b0845	-0.06788687
185	0x3c9dd599	0.01926689
186	0xbed1e2b1	-0.40993264
187	0x3e44ffdc	0.19238228
188	0x3da84876	0.08216946
189	0x3dbc43a0	0.09192586
190	0xbd42dda0	-0.04757464
191	0x3c1ae434	0.009453822
192	0xbea4dfe9	-0.3220208
193	0xbc1c6f06	-0.009547954
194	0x3e7692bb	0.2407941
195	0x3cca8a5a	0.024724174
196	0xbe262473	-0.16224842
197	0x3cdf3cca	0.027250666
198	0xbdacd225	-0.084385194
199	0x3de885ca	0.11353643
200	0x3e5bef66	0.21478042
201	0xbe81cfab	-0.2535375
202	0x3d84b694	0.064801365
203	0xbe904644	-0.28178608
204	0x3baf859d	0.005356504
205	0x3da0b124	0.07846287
206	0x3e9643c4	0.29348576
207	0xbe245204	-0.16046911
208	0x3e84c41f	0.2593088
209	0xbe2fdcd5	-0.17174084
210	0xbea6058a	-0.324261
211	0x3ea339b6	0.31879967
212	0xbc9f68fa	-0.019459236
213	0xbd5681a4	-0.05236973
214	0xbea0b47c	-0.313877
215	0xbe39bfd1	-0.18139578
216	0x3e45e0dc	0.19324058
217	0x3e245a12	0.16049984
218	0xbf0ee8bb	-0.5582387
219	0x3eb4ef02	0.35338598
220	0x3d76b62f	0.060232338
221	0xbaa60426	-0.0012666031
222	0xbdafa630	-0.085766196
223	0xbed12e4f	-0.40855643
224	0x3d41934d	0.047259618
225	0x3bdcd5f3	0.006739372
226	0xbda24b66	-0.07924537
227	0xbefaf8b9	-0.49017885
228	0x3d8b2b88	0.06795412
229	0x3e44055f	0.19142674
230	0xbd7af77a	-0.06127117
231	0x3e19b8a1	0.15011837
232	0xbda3ab5f	-0.07991671
233	0xbca280ec	-0.019836865
234	0xbdfa590c	-0.122240156
235	0x3dead7e0	0.11466956
236	0xbe4e9bfd	-0.20176692
237	0xbe492f55	-0.19646962
238	0xbe3ab513	-0.18233137
239	0xbe5e0ac3	-0.21683793
240	0x3ce4dcfa	0.027937401
241	0xbdd8c05e	-0.10583566
242	0x3da35fd5	0.07977263
243	0x3d86623e	0.06561707
244	0x3d43ca78	0.04780051
245	0x3e933f57	0.28759262
246	0x3db0511a	0.08609219
247	0x3e61941a	0.22029153
248	0x3dba1fe1	0.09088112
249	0xbb75b0a4	-0.003748932
250	0x3e442ce5	0.19157751
251	0x3e86a6a7	0.2629902
252	0x3dd7b52b	0.10532602
253	0xbe6453f0	-0.22297645
254	0x3b3d6257	0.0028897726
255	0x3e466b2e	0.19376823

mlp_extractor.value_net.2.bias f4 [64]
0	0x3d4418a5	0.047875065
1	0xbdbfc0b6	-0.093629286
2	0xbde2ea67	-0.11079865
3	0x3dd67ba8	0.10472804
4	0xbd656a0c	-0.056009337
5	0x3db7a4e3	0.089669965
6	0xbc4c93a1	-0.012486369
7	0xbc90fabf	-0.01769769
8	0x3d11af82	0.035567768
9	0xbd1b28ac	-0.037880585
10	0xbcd146e3	-0.025546497
11	0xbb1953d2	-0.0023395908
12	0xbdcf4c2c	-0.101219505
13	0x3d15b891	0.03655297
14	0x3d66f9a6	0.056390427
15	0xbb8d94c4	-0.0043207128
16	0x3d89e849	0.06733758
17	0x3cbf7aa2	0.023373906
18	0x3dbc8bbd	0.092063405
19	0x3d0b2ac7	0.033976343
20	0xbd4b6132	-0.04965324
21	0xbd8b243a	-0.06794019
22	0xbd38a7f8	-0.045082062
23	0xbcc20da5	-0.023688147
24	0xbc0a13a9	-0.008427539
25	0xbd1c0898	-0.038094133
26	0x3d968952	0.073504105
27	0x3db0690b	0.08613785
28	0x3d848976	0.06471531
29	0xbaf1d0c3	-0.0018449057
30	0x3db46089	0.08807475
31	0x3ccf7872	0.025325987
32	0xbd860d64	-0.06545523
33	0xbd14ded9	-0.036345337
34	0x3de5c9e0	0.11220145
35	0xbe0523c9	-0.13001932
36	0x3cedb50d	0.029016996
37	0xbd908d9d	-0.070582606
38	0xbba95ada	-0.005168301
39	0xbd005d5d	-0.03133904
40	0xbd1aa739	-0.037757132
41	0x3e1004d0	0.14064336
42	0xbda4191e	-0.08012603
43	0xbac87485	-0.0015293515
44	0x3d06f8ef	0.032952245
45	0xbce035a4	-0.027369328
46	0xbd53235e	-0.0515474
47	0xbd335482	-0.043781765
48	0x3ccf6a59	0.025319265
49	0xbd8056be	-0.06266545
50	0xbdb56ac1	-0.08858252
51	0x3cd7e06a	0.026352126
52	0x3dde80f3	0.10864439
53	0x3d3ad56c	0.04561369
54	0xbd333587	-0.04375222
55	0xbbf9efdd	-0.007627471
56	0xbd1a0e16	-0.03761109
57	0x3db1a9ee	0.0867499
58	0x3dc5399e	0.0963013
59	0x3de4637d	0.111517884
60	0xbc5649ac	-0.013079088
61	0xbd9dd583	-0.0770674
62	0x3d94c6ef	0.07264506
63	0xbd591d0a	-0.05300621

action_net.weight f4 [29, 64]
0	0x3d00cea2	0.03144706
1	0xbbd2f4f6	-0.006437893
2	0x3c8c6694	0.017138757
3	0x3c799b90	0.015234843
4	0xbb8639e2	-0.0040962556
5	0x3c70e273	0.014702427
6	0x3c10e631	0.008843944
7	0x3ba6162d	0.0050685615
8	0x3a8f7798	0.0010945676
9	0xbace8e0a	-0.0015758884
10	0xbc62be6c	-0.013839345
11	0xbb1ed8aa	-0.0024238029
12	0xbb4782be	-0.0030442919
13	0x3c4376de	0.011930196
14	0x3a09d6eb	0.00052581605
15	0xbd133c8b	-0.03594641
16	0xbc77df54	-0.015128929
17	0xba350a28	-0.00069061154
18	0xbca49b1d	-0.020093495
19	0xbc0533e7	-0.00813005
20	0x3c8d053c	0.01721441
21	0xbcd37933	-0.025814628
22	0x3c06e6e4	0.00823376
23	0x3d0414e0	0.03224647
24	0x3cf91bd6	0.030408781
25	0x3c08dadc	0.008352961
26	0x3c415c97	0.01180186
27	0x3cad9b64	0.02119226
28	0x3a6e4419	0.0009089127
29	0xbd06b5d4	-0.03288825
30	0xbcb74caf	-0.022375433
31	0x3d236e62	0.03990019
32	0xbc3b5696	-0.011434218
33	0xbbe630b1	-0.0070248474
34	0xbd1123f1	-0.035434667
35	0x3bde409e	0.0067826053
36	0xbcea8e4a	-0.028632302
37	0x3c167a1d	0.0091843875
38	0x3d4187be	0.047248594
39	0x3bb8a4e8	0.0056348927
40	0x3c93d7e4	0.01804728
41	0xbd036484	-0.03207828
42	0x3cd4c1f6	0.025971394
43	0xb8d88b80	-0.000103256665
44	0x3d038cd3	0.032116722
45	0x3d27e9d5	0.040994484
46	0x3d2a4ae1	0.041575316
47	0xbb33f7e0	-0.0027460977
48	0xbd1c90e5	-0.03822412
49	0xbce78e59	-0.028266119
50	0xbd30e970	-0.043191373
51	0x3cc84a1e	0.024449404
52	0xbc89611b	-0.016769936
53	0x3c876498	0.016527459
54	0x3b3ce06b	0.0028820287
55	0xbc5ddd77	-0.013541571
56	0x3d121c26	0.035671376
57	0xbbf9695c	-0.007611437
58	0xbc20f7a2	-0.009824665
59	0x3d253e30	0.04034251
60	0x3bf23e98	0.0073927157
61	0x3d08f07c	0.03343247
62	0x3cb76053	0.022384798
63	0x3cd57b5f	0.026059804
64	0x3b8cd8af	0.0042982916
65	0x3d1adc91	0.037808005
66	0xbca963a1	-0.02067739
67	0xbc730120	-0.014831811
68	0x3bca679a	0.006176901
69	0x3c963d8a	0.018339891
70	0xbc2ee764	-0.010675285
71	0xbaf8593b	-0.0018947491
72	0xbc90cb44	-0.01767505
73	0xb9c84835	-0.0003820077
74	0x3a1eab8b	0.00060527836
75	0x3c8d7c37	0.017271144
76	0xbc698f92	-0.014255421
77	0x3b9d3474	0.0047975127
78	0xbb5fdc12	-0.0034158272
79	0xbc79d050	-0.0152474195
80	0xbc40f8f2	-0.011778103
81	0xbc4bf0f2	-0.012447583
82	0x3bd56558	0.0065123253
83	0x3d2d156c	0.042256758
84	0x3c322224	0.010872398
85	0x3c833503	0.016016489
86	0xbc993cfc	-0.018705837
87	0x3c264bf6	0.010149946
88	0x3ca99d45	0.020704875
89	0x3cbd8e16	0.02313904
90	0x39a8f3f6	0.00032225222
91	0xbc064caa	-0.008196989
92	0xbcb90ef0	-0.02259013
93	0x3cf07db5	0.029356817
94	0xbbe4d753	-0.0069836765
95	0x3c8377fb	0.016048422
96	0x3c1fd025	0.009754215
97	0x3b4e45da	0.003147474
98	0x3c15a50a	0.009133587
99	0x3ceaba3f	0.028653262
100	0xbbf23e33	-0.0073926686
101	0x3bd43bdc	0.0064768624
102	0xbb907e38	-0.0044095777
103	0x3cdbc8ca	0.026829142
104	0xbc4123b9	-0.011788302
105	0xbceee67f	-0.029162643
106	0xbb9f14f0	-0.004854791
107	0x3c658501	0.014008761
108	0x3c785b5d	0.015158501
109	0xbbfae114	-0.007656226
110	0xbcb906cd	-0.02258625
111	0x3be8765f	0.007094189
112	0x3bedcbe6	0.0072569726
113	0xbbc39a12	-0.0059692943
114	0x3c8634ed	0.016382659
115	0xbcdcf6c7	-0.026973141
116	0xbc174cbb	-0.009234603
117	0x3ce0ad14	0.02742628
118	0xbc497dae	-0.012298031
119	0xbc399246	-0.011326378
120	0x3ca62d08	0.020285144
121	0xbd13dc4e	-0.03609877
122	0x3cfa349b	0.030542662
123	0xbc4e1b5b	-0.012579764
124	0xbba232ef	-0.0049499194
125	0x3a4815ba	0.0007632632
126	0xbc1e09f3	-0.009645927
127	0xbb1f93bb	-0.0024349529
128	0xbaaed4ee	-0.0013338604
129	0xbc1c37ef	-0.00953482
130	0x3c2bb72d	0.010480684
131	0xbbb255f4	-0.0054423753
132	0x3c3027fd	0.010751721
133	0x3b2a1fcf	0.00259589
134	0xbc74da21	-0.014944584
135	0x3a08acae	0.00052137196
136	0xbd1b2774	-0.037879422
137	0x3cba9ebd	0.02278077
138	0xbca8c3f7	-0.020601256
139	0xbd051d78	-0.032498807
140	0x3ca78bb7	0.020452363
141	0x3ca5a646	0.020220887
142	0xba553b4a	-0.000813414
143	0xbc066462	-0.008202644
144	0xbc4354eb	-0.0119221015
145	0xbc35d8f5	-0.01109909
146	0xbc24b18f	-0.010052099
147	0xbd1f16bb	-0.038840037
148	0xbca821c2	-0.02052391
149	0xbb58bc7f	-0.0033071337
150	0xbcaba37f	-0.020951984
151	0x3ce05607	0.027384771
152	0xbbe4cad2	-0.006982186
153	0xbbc595c9	-0.0060298187
154	0x3caaaba2	0.020833794
155	0x3c82d6df	0.0159716
156	0xbbf42984	-0.007451238
157	0x3bfc3bdd	0.007697566
158	0xbcc05a79	-0.02348064
159	0x3c22c5b4	0.009934831
160	0x3c38ef20	0.011287481
161	0xbca4412b	-0.020050606
162	0xbb9c0f17	-0.004762541
163	0xbc550a95	-0.013003011
164	0x3cefc292	0.029267583
165	0x3d29683b	0.041359168
166	0x3c382f5d	0.011241761
167	0xbc38fdfb	-0.011291022
168	0x3a151fcf	0.0005688639
169	0xbbc67f7f	-0.006057679
170	0x3bfea963	0.0077716573
171	0xbc1830f3	-0.009289014
172	0x3c546547	0.0129635995
173	0x3c17448d	0.009232652
174	0xbc133141	-0.008983911
175	0xbbbfe17e	-0.005855738
176	0xbca0da50	-0.01963535
177	0xbcd3b1c6	-0.025841605
178	0x3b257702	0.0025247936
179	0xbbfc093b	-0.00769153
180	0xbceb1f2f	-0.028701393
181	0x3c932087	0.017959846
182	0xbc373233	-0.011181402
183	0xbcb554fd	-0.022135252
184	0x3bb628fb	0.0055590845
185	0xbcd70d20	-0.026251376
186	0xbb9d955f	-0.004809066
187	0x3ce3a02f	0.027786342
188	0x3c078583	0.008271578
189	0xbc4784df	-0.012177675
190	0x3c0099cd	0.007849169
191	0xbb92f9d7	-0.0044853496
192	0xbd4245bd	-0.04742979
193	0x3cdc30ae	0.026878681
194	0xbcea2298	-0.028580949
195	0xbbc543ee	-0.0060200607
196	0x3c544bc8	0.012957521
197	0x3c3635f0	0.011121258
198	0xbbfda83b	-0.007741002
199	0xbcfe3b16	-0.031034034
200	0x3c6edb78	0.014578693
201	0x3c12c6cc	0.00895853
202	0x3be2f10c	0.0069257077
203	0x3b2ca216	0.0026341728
204	0x3bca17a2	0.006167368
205	0x3a847e95	0.0010108525
206	0xbaa0be90	-0.0012263823
207	0x3cf612fb	0.030038347
208	0x3b33d77f	0.0027441678
209	0xbbd7ed2a	-0.0065895515
210	0xbc0af6e5	-0.008481716
211	0x3ce3c91c	0.027805857
212	0xbcdbf67d	-0.026850933
213	0x3cabe29c	0.02098208
214	0x3b5ff71c	0.0034174388
215	0xbd569c3b	-0.052395087
216	0xbab36596	-0.0013686891
217	0x3b207340	0.0024482757
218	0xbb77ec8f	-0.003783021
219	0xbd046cb7	-0.03233024
220	0xbd090429	-0.033451233
221	0x3cbd633d	0.02311861
222	0x3c170fad	0.009220046
223	0xbcc4d347	-0.024026526
224	0xbbcfa101	-0.006336332
225	0x3c9a2203	0.018815046
226	0x3c7bdd98	0.015372656
227	0x3d02625c	0.031832084
228	0x3c621eba	0.013801271
229	0xbb8fc5d7	-0.004387598
230	0xbc8e052f	-0.017336456
231	0x3c478307	0.012177235
232	0x3d071e78	0.03298804
233	0xbb3d0401	-0.0028841498
234	0xbd18413f	-0.0371716
235	0x3d216890	0.03940636
236	0x3c893eb9	0.016753541
237	0xbc62a9aa	-0.013834396
238	0xbba376a6	-0.004988509
239	0x3bfc0088	0.007690493
240	0x3cb2e454	0.021837391
241	0xbc7549f0	-0.014971241
242	0x3ccb9a26	0.024853777
243	0x3b6f30ba	0.003649755
244	0x3b5f269f	0.003405012
245	0x3cca8fe9	0.024726825
246	0xbc9ef4ea	-0.019403894
247	0x3c1abf63	0.009445044
248	0xbd51737f	-0.051135536
249	0x3c23fca1	0.010008962
250	0x3beb8ad9	0.007188183
251	0x3c097aca	0.008391092
252	0xbc17166a	-0.0092216525
253	0xbc1065ac	-0.008813303
254	0xbcd95145	-0.02652801
255	0xbcd64d95	-0.02616004

action_net.bias f4 [29]
0	0xbc2c4ab9	-0.010515862
1	0xbc930558	-0.017946884
2	0xbce55b7b	-0.027997723
3	0x3c5ae9a9	0.013361373
4	0xbc1a9dc9	-0.009437033
5	0x3bcb4506	0.0062032966
6	0xbb8fcd65	-0.0043884986
7	0xbbe44f67	-0.0069674733
8	0xbaa938dd	-0.0012910623
9	0xbc33f431	-0.010983513
10	0x3cb61415	0.022226373
11	0xbcb30435	-0.021852592
12	0x39aa6124	0.00032497302
13	0xbc957fa5	-0.018249342
14	0x3bfcd103	0.007715346
15	0xbc29b480	-0.010357976
16	0xbc1784a5	-0.0092479335
17	0xbcd9027e	-0.026490446
18	0xbc95bedc	-0.018279485
19	0xbb710d30	-0.0036781542
20	0x3bb22c4d	0.00543741
21	0xbbe0712c	-0.0068494286
22	0xbc68e2fa	-0.014214272
23	0xbb1de092	-0.0024090153
24	0x3c4aed8c	0.012385737
25	0x3a38c8d8	0.0007048971
26	0xbcd5dc51	-0.026106032
27	0x3c8add69	0.01695128
28	0x3d64e0f1	0.055878583

value_net.weight f4 [1, 64]
0	0x3f5f4d12	0.87226975
1	0x3f5d1851	0.8636523
2	0xbf26cd4a	-0.65156996
3	0x3f22e517	0.63630813
4	0xbf321376	-0.69560945
5	0x3f229965	0.6351531
6	0xbf4320ce	-0.7622193
7	0xbf4719f6	-0.7777399
8	0x3f5b48e9	0.8565813
9	0xbf423078	-0.7585521
10	0x3f4d33a4	0.8015692
11	0xbf47ddbe	-0.78072727
12	0xbf3bc559	-0.73348004
13	0x3f4c6225	0.79837257
14	0x3f418292	0.7558986
15	0xbf77adbc	-0.9674947
16	0xbf498b11	-0.78727823
17	0x3f3f1615	0.7464307
18	0x3f3b1d49	0.7309156
19	0x3f657fa3	0.89647883
20	0xbf3c56f3	-0.73570174
21	0xbf4232f4	-0.75859
22	0xbf349f36	-0.70555437
23	0xbf396b4f	-0.72429365
24	0x3f4b4236	0.79397905
25	0xbf34c691	-0.7061549
26	0x3f51aa5e	0.81900585
27	0x3f2d4b13	0.6769268
28	0x3f2a9343	0.66630954
29	0x3f4e70a9	0.80640656
30	0x3f2373df	0.6384868
31	0xbf5e3942	-0.8680612
32	0xbf341993	-0.70351523
33	0xbf3913c9	-0.72295815
34	0x3f3bf49e	0.7342013
35	0xbf3feba8	-0.7496896
36	0x3f496b09	0.7867895
37	0xbf43b5ff	-0.7644958
38	0x3f73ec48	0.9528241
39	0xbf3e2300	-0.74272156
40	0xbf2f3df0	-0.68453884
41	0x3f28bf52	0.6591693
42	0xbf2a69e7	-0.66567844
43	0xbf361b4c	-0.711354
44	0x3f36caa1	0.7140294
45	0x3f2b1e03	0.6684267
46	0xbf382c7c	-0.7194288
47	0xbf5903e4	-0.8477156
48	0xbf7ce22d	-0.98782617
49	0xbf439fce	-0.7641572
50	0xbf2c07a7	-0.67199177
51	0x3f3ef418	0.7459121
52	0x3f22382e	0.63366973
53	0xbf5ca6ba	-0.86191905
54	0x3f5a6518	0.85310507
55	0xbf49761a	-0.78695834
56	0xbf8f46e2	-1.1193507
57	0x3f31ee21	0.6950398
58	0xbf8100c4	-1.0078359
59	0x3f24c0e4	0.6435683
60	0xbf5e3ee4	-0.86814713
61	0xbf27a1b2	-0.654811
62	0x3f45690e	0.77113426
63	0xbf38d005	-0.7219241
